model/lenet5/Lenet5_pre_quant.tflite (tflite, 72568 bytes, 4 tensors)

sequential_1/conv2d_1/Conv2D i1 [6, 3, 3, 1]
00000000: 8e9f 999c 81c4 2af8 04e1 0bfe a77f 1fe3
00000010: 6986 bb13 a6d5 04cb 997f d005 3a7a 6d5c
00000020: 7f11 461c 677b 725b 707f 306f 747f 5469
00000030: 5daf af14 9bc8
-114 -97 -103 -100 -127 -60 42 -8
4 -31 11 -2 -89 127 31 -29
105 -122 -69 19 -90 -43 4 -53
-103 127 -48 5 58 122 109 92
127 17 70 28 103 123 114 91
112 127 48 111 116 127 84 105
93 -81 -81 20 -101 -56

sequential_1/conv2d_2/Conv2D i1 [16, 3, 3, 6]
00000000: 13ef b2e9 14cc c5a2 2743 b71e b1e1 8f0c
00000010: 22fc cee4 4e1c e0be b233 9899 bf45 513e
00000020: 9c1f 7f2c d612 2831 baea 9d95 a8b3 97a3
00000030: 0ec6 c70e cbf6 4936 2218 c213 f7d0 d809
00000040: 55af 2942 4bc8 e00a 3831 546d 67e0 cec4
00000050: e35f 301c 04ec abed 5338 a8fc 0b00 7f17
00000060: 1e2c f935 3952 35ae c1cc f0ac 2af6 d8c0
00000070: a902 14e7 e594 ebc3 fcae b00a ca2a 2dbd
00000080: ec08 ebf7 d40d b7c7 ba38 51b0 21ab be0c
00000090: 50df 333b 3ee7 3fc8 365b 5143 bdaa c769
000000a0: 7fea 1fe6 2a03 c0fe f9ee 2e0a 0928 e433
000000b0: d026 efe4 1ff2 ef0d 22d2 0203 06ed 09c8
000000c0: f005 01e9 6508 ead1 d5ee 6005 3033 d941
000000d0: 7fd5 d624 ce0f 6e36 df09 c3d7 0134 ce90
000000e0: 083f fcfc 12d2 071a da24 3b15 d723 b698
000000f0: 1575 401d dcd8 da7f 3bee ad70 6b44 e620
19 -17 -78 -23 20 -52 -59 -94
39 67 -73 30 -79 -31 -113 12
34 -4 -50 -28 78 28 -32 -66
-78 51 -104 -103 -65 69 81 62
-100 31 127 44 -42 18 40 49
-70 -22 -99 -107 -88 -77 -105 -93
14 -58 -57 14 -53 -10 73 54
34 24 -62 19 -9 -48 -40 9
85 -81 41 66 75 -56 -32 10
56 49 84 109 103 -32 -50 -60
-29 95 48 28 4 -20 -85 -19
83 56 -88 -4 11 0 127 23
30 44 -7 53 57 82 53 -82
-63 -52 -16 -84 42 -10 -40 -64
-87 2 20 -25 -27 -108 -21 -61
-4 -82 -80 10 -54 42 45 -67
-20 8 -21 -9 -44 13 -73 -57
-70 56 81 -80 33 -85 -66 12
80 -33 51 59 62 -25 63 -56
54 91 81 67 -67 -86 -57 105
127 -22 31 -26 42 3 -64 -2
-7 -18 46 10 9 40 -28 51
-48 38 -17 -28 31 -14 -17 13
34 -46 2 3 6 -19 9 -56
-16 5 1 -23 101 8 -22 -47
-43 -18 96 5 48 51 -39 65
127 -43 -42 36 -50 15 110 54
-33 9 -61 -41 1 52 -50 -112
8 63 -4 -4 18 -46 7 26
-38 36 59 21 -41 35 -74 -104
21 117 64 29 -36 -40 -38 127
59 -18 -83 112 107 68 -26 32

sequential_1/dense_1/MatMul i1 [84, 784] scale=0.0016576782 zero_point=0
00000000: e5d7 e3f2 2220 2f0d 00e4 0217 29d8 d707
00000010: f115 da0d d703 0716 fee5 23f6 e22d 30fc
00000020: dffb 0df6 0527 e6d2 22f0 f4f0 23df 1d19
00000030: 2ed7 dafb e425 b703 02c8 1f23 cd01 1e07
00000040: 1521 d6f4 e428 c018 bc1e 3114 0121 e2dd
00000050: 122e fe03 f7df 2af5 d31c 25ec 300c 250f
00000060: 1f22 f6e7 faeb d031 1d0d 11ea 00ec f7db
00000070: d825 0bf7 2de8 dd15 dd14 27de 0b2f 28cf
00000080: ecf4 2e04 0510 dcf0 dfea ddd6 f831 f701
00000090: fb08 230c dd24 dc34 17df 2fd4 1006 d1fc
000000a0: d102 31f5 3233 be3d 1308 33db 0926 d4d4
000000b0: f3e2 3423 2e1e d51d e4f6 320c d6fb c5cd
000000c0: eefd 2119 19d0 1ad6 fee9 1ef1 19cf 142f
000000d0: f9ff 09fa 0423 1929 041f f80c cf1e 0de0
000000e0: 2409 2304 202d 282e 0120 17ee e42f 09d1
000000f0: 1933 0212 da30 3d0f fbf9 0031 fdec 0d20
-0.04475731 -0.06796481 -0.048072666 -0.023207495 0.056361057 0.0530457 0.07791087 0.021549815
0.0 -0.04641499 0.0033153563 0.0381266 0.06796481 -0.06630713 -0.06796481 0.0116037475
-0.024865173 0.03481124 -0.06299177 0.021549815 -0.06796481 0.0049730344 0.0116037475 0.03646892
-0.0033153563 -0.04475731 0.058018737 -0.016576782 -0.049730346 0.07459552 0.07956855 -0.0066307127
-0.05470338 -0.008288391 0.021549815 -0.016576782 0.008288391 0.06464945 -0.04309963 -0.0762532
0.056361057 -0.02652285 -0.019892137 -0.02652285 0.058018737 -0.05470338 0.048072666 0.041441955
0.0762532 -0.06796481 -0.06299177 -0.008288391 -0.04641499 0.061334092 -0.121010505 0.0049730344
0.0033153563 -0.09282998 0.05138802 0.058018737 -0.08454159 0.0016576782 0.049730346 0.0116037475
0.03481124 0.05470338 -0.06962248 -0.019892137 -0.04641499 0.06630713 -0.1060914 0.039784275
-0.112722114 0.049730346 0.08122623 0.033153564 0.0016576782 0.05470338 -0.049730346 -0.058018737
0.029838206 0.0762532 -0.0033153563 0.0049730344 -0.014919103 -0.05470338 0.06962248 -0.01823446
-0.07459552 0.04641499 0.061334092 -0.033153564 0.07956855 0.019892137 0.061334092 0.024865173
0.05138802 0.056361057 -0.016576782 -0.041441955 -0.009946069 -0.03481124 -0.07956855 0.08122623
0.048072666 0.021549815 0.028180528 -0.03646892 0.0 -0.033153564 -0.014919103 -0.061334092
-0.06630713 0.061334092 0.01823446 -0.014919103 0.07459552 -0.039784275 -0.058018737 0.03481124
-0.058018737 0.033153564 0.06464945 -0.056361057 0.01823446 0.07791087 0.06630713 -0.08122623
-0.033153564 -0.019892137 0.0762532 0.0066307127 0.008288391 0.02652285 -0.059676412 -0.02652285
-0.05470338 -0.03646892 -0.058018737 -0.06962248 -0.013261425 0.08122623 -0.014919103 0.0016576782
-0.008288391 0.013261425 0.058018737 0.019892137 -0.058018737 0.059676412 -0.059676412 0.08619926
0.0381266 -0.05470338 0.07791087 -0.07293784 0.02652285 0.009946069 -0.07791087 -0.0066307127
-0.07791087 0.0033153563 0.08122623 -0.01823446 0.08288391 0.08454159 -0.10940676 0.10111837
0.031495884 0.013261425 0.08454159 -0.061334092 0.014919103 0.06299177 -0.07293784 -0.07293784
-0.021549815 -0.049730346 0.08619926 0.058018737 0.0762532 0.049730346 -0.07128016 0.048072666
-0.04641499 -0.016576782 0.08288391 0.019892137 -0.06962248 -0.008288391 -0.09780301 -0.08454159
-0.029838206 -0.0049730344 0.05470338 0.041441955 0.041441955 -0.07956855 0.04309963 -0.06962248
-0.0033153563 -0.0381266 0.049730346 -0.024865173 0.041441955 -0.08122623 0.033153564 0.07791087
-0.0116037475 -0.0016576782 0.014919103 -0.009946069 0.0066307127 0.058018737 0.041441955 0.06796481
0.0066307127 0.05138802 -0.013261425 0.019892137 -0.08122623 0.049730346 0.021549815 -0.0530457
0.059676412 0.014919103 0.058018737 0.0066307127 0.0530457 0.07459552 0.06630713 0.0762532
0.0016576782 0.0530457 0.0381266 -0.029838206 -0.04641499 0.07791087 0.014919103 -0.07791087
0.041441955 0.08454159 0.0033153563 0.029838206 -0.06299177 0.07956855 0.10111837 0.024865173
-0.008288391 -0.0116037475 0.0 0.08122623 -0.0049730344 -0.033153564 0.021549815 0.0530457

sequential_1/dense_2/MatMul i1 [10, 84] scale=0.0031835695 zero_point=0
00000000: dc24 b3bd cbbe f40e d937 1948 3e2d b43d
00000010: bb14 03fc 03c2 043c b9d0 2dde 42cd 1acd
00000020: eea8 41ae ee21 ba41 12ef 4af6 b85b 4d1b
00000030: 47e3 d930 4642 36dd 1dfb 112d 072e c945
00000040: c2e8 a9e8 58f4 e2fa cb0d c5f2 ccc7 f81a
00000050: 4ec2 d1fd 2430 2dc3 2951 3304 b844 eed8
00000060: 2cfb 5a25 5eb4 f0ad fa33 f10b ed41 e214
00000070: ab54 0edc d0dc f5b5 3616 144d 26a9 ea38
00000080: 2941 25d5 11eb d2fd e53a 64f4 164d 0522
00000090: 5794 b92b 1211 51fe dd3c 38d4 271a 2344
000000a0: d6b2 39f9 9361 24f8 4f5c df2d ac33 0f8d
000000b0: 3627 f64c be16 cacf 3ce5 bb0a 043a e740
000000c0: 3714 e022 c91e b1db c333 d9b4 1c26 dffa
000000d0: 2e3d fdde 39ee 0ebd ee3d d1ab d3e9 5b3e
000000e0: c7e6 196f e454 04d1 b9bd f830 f13f 4d0a
000000f0: 0550 16f8 3622 015f 12e3 3e57 f0e0 c233
-0.114608504 0.114608504 -0.24513486 -0.21329916 -0.16872919 -0.21011558 -0.038202833 0.044569973
-0.12415921 0.17509632 0.07958924 0.22921701 0.19738132 0.14326063 -0.24195129 0.19419774
-0.2196663 0.06367139 0.009550708 -0.012734278 0.009550708 -0.19738132 0.012734278 0.19101417
-0.22603343 -0.15281133 0.14326063 -0.108241364 0.21011558 -0.16236204 0.08277281 -0.16236204
-0.057304252 -0.2801541 0.20693202 -0.2610527 -0.057304252 0.10505779 -0.22284986 0.20693202
0.057304252 -0.054120682 0.23558414 -0.031835694 -0.22921701 0.28970483 0.24513486 0.08595638
0.22603343 -0.09232352 -0.12415921 0.15281133 0.22284986 0.21011558 0.17191276 -0.11142493
0.09232352 -0.015917847 0.054120682 0.14326063 0.022284986 0.1464442 -0.17509632 0.2196663
-0.19738132 -0.07640567 -0.27697054 -0.07640567 0.2801541 -0.038202833 -0.095507085 -0.019101417
-0.16872919 0.041386403 -0.1878306 -0.044569973 -0.16554561 -0.18146347 -0.025468556 0.08277281
0.24831842 -0.19738132 -0.14962777 -0.009550708 0.114608504 0.15281133 0.14326063 -0.19419774
0.13052635 0.25786912 0.16236204 0.012734278 -0.22921701 0.21648273 -0.057304252 -0.12734278
0.14007705 -0.015917847 0.28652126 0.11779207 0.29925555 -0.24195129 -0.050937112 -0.26423627
-0.019101417 0.16236204 -0.047753543 0.035019264 -0.06048782 0.20693202 -0.095507085 0.06367139
-0.27060342 0.26741984 0.044569973 -0.114608504 -0.15281133 -0.114608504 -0.035019264 -0.23876771
0.17191276 0.07003853 0.06367139 0.24513486 0.12097564 -0.27697054 -0.07003853 0.17827989
0.13052635 0.20693202 0.11779207 -0.1368935 0.054120682 -0.06685496 -0.1464442 -0.009550708
-0.08595638 0.18464704 0.31835696 -0.038202833 0.07003853 0.24513486 0.015917847 0.108241364
0.27697054 -0.34382552 -0.22603343 0.1368935 0.057304252 0.054120682 0.25786912 -0.006367139
-0.11142493 0.19101417 0.17827989 -0.14007705 0.12415921 0.08277281 0.11142493 0.21648273
-0.13370992 -0.24831842 0.18146347 -0.022284986 -0.3470091 0.30880624 0.114608504 -0.025468556
0.251502 0.2928884 -0.10505779 0.14326063 -0.26741984 0.16236204 0.047753543 -0.3661105
0.17191276 0.12415921 -0.031835694 0.24195129 -0.21011558 0.07003853 -0.17191276 -0.1559949
0.19101417 -0.08595638 -0.2196663 0.031835694 0.012734278 0.18464704 -0.07958924 0.20374845
0.17509632 0.06367139 -0.101874225 0.108241364 -0.17509632 0.095507085 -0.251502 -0.11779207
-0.19419774 0.16236204 -0.12415921 -0.24195129 0.089139946 0.12097564 -0.10505779 -0.019101417
0.1464442 0.19419774 -0.009550708 -0.108241364 0.18146347 -0.057304252 0.044569973 -0.21329916
-0.057304252 0.19419774 -0.14962777 -0.27060342 -0.14326063 -0.0732221 0.28970483 0.19738132
-0.18146347 -0.08277281 0.07958924 0.3533762 -0.089139946 0.26741984 0.012734278 -0.14962777
-0.22603343 -0.21329916 -0.025468556 0.15281133 -0.047753543 0.20056488 0.24513486 0.031835694
0.015917847 0.25468555 0.07003853 -0.025468556 0.17191276 0.108241364 0.0031835695 0.3024391
0.057304252 -0.09232352 0.19738132 0.27697054 -0.050937112 -0.101874225 -0.19738132 0.16236204
